Drone_Project/model.pth (torch, 408896 bytes, 4 tensors)

fc1.weight f4 [128, 784]
000000 27 ab 11 3d 8c e7 0f bc 8b 32 a3 3c a3 93 35 3d
       0.035563614 -0.008783232 0.019921562 0.04433025
000010 49 2d 50 3d 87 bd b9 3c d6 a0 7e 3c cf 3b 40 3d
       0.050824437 0.022673381 0.015541276 0.046932038
000020 03 d0 21 3d 39 74 42 3d fb 15 ca bb cb fe 1d 3d
       0.039505016 0.04747412 -0.006167171 0.038573068
000030 b2 92 8e 3c 03 e2 42 3d 1d 76 af 3c b7 9d 2e 3d
       0.017403934 0.047578823 0.021418625 0.042630877
000040 4b 7d 06 3d ae c5 78 3c 86 32 7a bc 8b d4 40 3d
       0.032834332 0.015183849 -0.015270835 0.047077697
000050 fe d2 08 3d 4d a9 1d 3d 55 9b 55 3d c3 7b 34 3d
       0.033404343 0.038491536 0.05215009 0.04406334
000060 38 a7 84 3c 7b d3 dd 39 2c eb 0c 3d 72 0e 0b 3c
       0.016193017 0.0004230997 0.034403965 0.008487331
000070 a2 8d 17 bb 6b 03 a9 3c af 3e 49 bc cc 9d 12 3d
       -0.0023125191 0.020631513 -0.012283011 0.035795018
000080 d3 16 0a bc 68 a5 7f 3b a9 2b ab bb 85 42 3d 3d
       -0.008428293 0.0039008502 -0.0052237106 0.046206016
000090 b0 b0 53 3d 74 1e 2d 3d 01 ee 19 3d 54 d4 e7 3c
       0.051682174 0.04226537 0.037580494 0.028299488
0000a0 4e d5 10 3c fa 2c 44 3d 32 27 50 3d 46 56 43 3d
       0.008839918 0.047894455 0.05081863 0.0476897
0000b0 29 5f 9d bc aa 3b 30 3d 02 1c 2d 3d 76 bb 6a bb
       -0.019210415 0.04302565 0.04226304 -0.0035817302
0000c0 0b b5 0b 3c d6 e7 28 39 85 63 6c 3b 7d 67 29 3d
       0.008527051 0.00016108094 0.003607006 0.04135846
0000d0 c5 95 c5 3c 19 a8 46 3d 8b 2b 4b 3d 16 6a a7 3a
       0.024119267 0.048500154 0.049602073 0.0012772705
0000e0 8d 27 a0 bb 01 20 e2 3c 1f 34 d2 3c 51 b2 2f 3d
       -0.0048875273 0.027603151 0.025659619 0.042894665
0000f0 5f 2b dc 3a 2f 34 b5 3c bd 1d 40 3d 6f 70 2b bc
       0.0016797594 0.02211961 0.04690336 -0.010463818
000100 29 4b 40 bc 1e bd c1 3c 91 e5 a2 3c e4 fe 67 3c
       -0.01173667 0.023649748 0.019884856 0.014159892
000110 d9 b4 18 3d e1 0b 50 3d 95 84 a6 3c 9c cf ff 3c
       0.037281845 0.05079258 0.020326892 0.031226926
000120 27 1e 03 3d af 5e a7 3c d1 17 10 3d ac 4d 46 3d
       0.032011177 0.02043089 0.035178963 0.048413917
000130 b8 0b ae bb 92 dd 11 3d b9 9d b5 3c 22 37 eb 3c
       -0.0053114556 0.035611697 0.022169935 0.028712813
000140 c1 6d 7f bc ce 4b 5c bc e5 5b 1e ba c7 17 34 3d
       -0.015590132 -0.013445808 -0.0006040915 0.04396799
000150 ec fe 03 3d c7 5c 2a 3d 5c 68 59 bc 2d bc 27 3b
       0.032225534 0.041592386 -0.01326951 0.002559434
000160 13 4e 0d 3d 32 8c 4c 3d 70 80 2e 3d c5 93 d9 3a
       0.034498286 0.04993839 0.042602956 0.0016599825
000170 f8 1d 95 bc 07 37 3f ba 7b 0c d5 3c 92 6e 8c bc
       -0.018202767 -0.00072942715 0.026006928 -0.017142568
000180 1e 5d a3 3a f0 c2 28 bc 1b 00 35 3d 86 e4 92 3d
       0.0012463664 -0.010300383 0.044189554 0.07172494
000190 a7 2e 3f 3d dd 41 26 3d 38 f0 9f 39 29 63 c9 3c
       0.04667535 0.040590156 0.0003050582 0.024583416
0001a0 6a 2e 20 bc 77 97 49 3c 7f 42 89 3c 41 36 02 3d
       -0.009776691 0.012304178 0.01675534 0.03179002
0001b0 72 9c 55 3d 31 35 fe 3c 24 5e f2 3c 70 e6 7c bc
       0.05215115 0.031031223 0.029585905 -0.0154358
0001c0 57 25 3e 3c 22 e8 df bb 71 f9 17 3d df 0e 06 3d
       0.011605582 -0.0068330923 0.03710312 0.032729026
0001d0 a3 06 24 bb 6d e5 82 3d d0 82 3a 3d 38 76 80 bb
       -0.002502837 0.06391416 0.04553491 -0.003920343
0001e0 3d 4e f6 3c f8 eb 54 3d ee c1 a8 bc 73 b6 50 bc
       0.030066604 0.05198285 -0.020600285 -0.012738812
0001f0 7d a8 f4 bc 90 8c 26 3d bf 22 63 3d ea fc 0f 3d
       -0.029865498 0.040661395 0.05545306 0.035153307
000200 e0 58 01 3c 08 dc 3a 3c 3f 0d 83 bc 4b 87 7c 3d
       0.007894725 0.011404999 -0.015997527 0.061652463
000210 77 96 7d 3d 0d cf bf 3c c2 71 39 bc a6 43 74 3c
       0.061911073 0.02341416 -0.011318626 0.014908707
000220 07 6c 31 3b e0 4e c7 3c 43 70 6f 3b 53 d8 e8 3c
       0.0027072446 0.024329603 0.003653542 0.028423464
000230 ba 7f 4f 3b c4 3d cb ba 50 44 87 3c 20 d9 79 3b
       0.0031661824 -0.0015506078 0.016512066 0.0038123801
000240 26 a0 85 3b fa bf 89 3d 49 5c 1f 3d e7 bb 54 3d
       0.004077929 0.0672607 0.03890637 0.05193701
000250 ce eb 41 bc cb e4 0a bd ff c2 60 bd 5a 3c f5 bc
       -0.011836005 -0.0339096 -0.054873463 -0.029936004
000260 20 92 ab bb 03 5f 10 3d 82 f8 c2 bb b9 4e 98 3d
       -0.0052359253 0.03524686 -0.0059500346 0.0743689
000270 69 94 e9 3b 67 6a 9a bc 6f 06 38 bd 06 03 12 3d
       0.0071282876 -0.018849565 -0.04492801 0.035647415
000280 11 c4 b4 3c bf 38 03 bb 8a bf b1 3c f8 67 ab bc
       0.022066148 -0.0020022837 0.021697778 -0.0209236
000290 25 db 61 3c 22 11 34 3d 72 8e 91 bb c2 1f 36 3d
       0.013785158 0.04396165 -0.0044420296 0.04446388
0002a0 96 cc 48 3b 1d 83 15 3d 99 4a 88 bc 2c fc 0f 3d
       0.003063952 0.036501992 -0.016637133 0.0351526
0002b0 35 13 a3 3c 6e 6e ad 3c ec a0 0e bc fd ee 8e 3c
       0.01990662 0.021170821 -0.008705359 0.017447943
0002c0 98 88 81 bc be 92 95 bd d6 21 5b bd b1 3a 93 bc
       -0.015812203 -0.073033795 -0.053499065 -0.017972322
0002d0 9f f5 b0 bc be c7 4e bd 3b 31 2e bd eb c5 bf 3b
       -0.021601496 -0.050483458 -0.04252742 0.005852451
0002e0 da 01 b1 bc 06 c6 bd 3c 2c a2 76 bd 23 08 97 bd
       -0.021607328 0.023165714 -0.060213253 -0.07374599
0002f0 fd 1a a3 bd 26 58 f4 b9 85 da 41 bd f4 dd 12 bc
       -0.07964132 -0.00046604982 -0.047327537 -0.008964051
000300 98 05 04 3d 91 d5 eb 3c c6 27 b6 3c 57 0a 2f 3d
       0.032231897 0.02878836 0.022235762 0.04273447
000310 cc c0 4e bc 24 53 20 bc 79 5a d4 3c 04 8f a8 bc
       -0.012619209 -0.009785447 0.025922047 -0.020576008
000320 57 84 da 3c a0 a7 db bc e8 ec a1 bd 5b 1b b0 bd
       0.026674433 -0.026813328 -0.079065144 -0.08598968
000330 9a ea 90 bd bd 49 96 bd 7f f0 d8 bd c1 51 84 bd
       -0.07075997 -0.07338283 -0.10592746 -0.06460906
000340 1d 88 d3 bc da fc 30 3c 75 59 1a 3d 79 54 bf 3d
       -0.02582174 0.010802472 0.03768297 0.09342284
000350 0c 0b 02 3d 74 70 86 bd e1 6b cb 3a 9d 69 e4 bc
       0.031748816 -0.065644175 0.0015519821 -0.027882392
000360 88 bc 67 bd 43 a3 53 bd f0 9b 96 bd c8 22 6e b9
       -0.05657628 -0.05166937 -0.073539615 -0.00022710406
000370 73 a7 92 3c 54 f6 82 38 33 e0 28 3d 1c e7 55 3d
       0.017902112 6.244765e-05 0.041229438 0.052222356
000380 7f 06 33 bb 70 cf 51 3d ab f9 03 3c 08 84 f1 3c
       -0.0027317104 0.05122322 0.008055131 0.029481903
000390 6d 60 12 3d 32 b3 79 bc 3a 90 92 bd 33 b0 98 bd
       0.03573649 -0.015240477 -0.07156415 -0.07455482
0003a0 3e 8f af bd aa 8f f7 bd 00 a4 2d bd fd 65 8d bd
       -0.08572243 -0.120879486 -0.04239273 -0.06904218
0003b0 fa 26 28 bc d3 27 7f 3d dd 8d 64 3d f5 e1 63 3d
       -0.010263199 0.06229384 0.055799354 0.05563541
0003c0 84 82 93 3b a5 80 8f bd 95 c1 d6 bc 6b d0 5c 3d
       0.0045016427 -0.07006959 -0.026215354 0.0539097
0003d0 fa 78 83 bd c0 34 96 bc 6b fb 19 bd 4c ca 9d bd
       -0.06419559 -0.0183357 -0.037593286 -0.07704601
0003e0 3e 11 21 bd 07 25 02 bd e5 e6 8d 3c 4e 10 cc 3c
       -0.039323084 -0.031773593 0.017322013 0.024910118
0003f0 64 cb 4b 3c 39 71 8b bc ce 5d 2a 3d 8b e6 92 bc
       0.012438629 -0.017021762 0.041593365 -0.017932197

fc1.bias f4 [128]
000000 10 e0 19 3c 9e 2b e9 bc f7 0b df bb 92 0c da 3a
       0.0093918 -0.028463181 -0.0068068462 0.0016635826
000010 62 b3 0c bd 3a 7e a7 bc fb 8f 1d 3c 2e 66 27 bd
       -0.03435076 -0.020445932 0.009616847 -0.04086893
000020 ba e8 a8 ba 70 b2 22 bd 35 aa 06 ba 6a 76 d7 3c
       -0.0012886741 -0.039720953 -0.0005137057 0.026301581
000030 28 9d eb 3c 7c 90 b9 3c 11 d0 c9 ba 82 1e a5 bc
       0.028761461 0.022651903 -0.0015397092 -0.020156149
000040 aa 0b a3 3c da 78 55 3c 99 f0 0d bb 49 db 25 bd
       0.019903023 0.013029302 -0.00216583 -0.04049233
000050 9b 1a 5a bc 48 d1 a1 3c d7 40 3a bd 7b ae 3d bc
       -0.013312007 0.019753113 -0.045471992 -0.011577244
000060 80 ce 64 ba 84 5e 97 3c 65 a3 71 ba 1b 04 44 ba
       -0.00087282807 0.018477686 -0.0009217768 -0.00074774184
000070 6c 07 c1 bc 35 ab af bc 02 3a 0d bd 84 4a c3 3c
       -0.02356311 -0.021443943 -0.03447915 0.023839243
000080 51 b6 48 bd f1 85 eb bc b5 62 70 3c f8 66 bd bb
       -0.049001995 -0.028750392 0.014671971 -0.005780097
000090 a2 0f 28 bd 1c 58 14 3b 28 81 0f bd e4 df 7a bc
       -0.041030534 0.0022635525 -0.035035282 -0.015312169
0000a0 30 35 f5 bc 35 28 26 bc bb c0 59 3c e3 77 ac 3c
       -0.029932588 -0.010141422 0.013290579 0.02105326
0000b0 57 07 49 3c 55 b0 f1 3c a4 bb df 3b 8d 7c 24 bd
       0.012269816 0.029503027 0.0068277884 -0.040157843
0000c0 bb 82 41 bd 76 c9 58 bc 24 4c 20 bd 7b 12 40 3c
       -0.047243815 -0.013231626 -0.039135113 0.011723156
0000d0 10 46 c5 bb bf fa c9 3c 5b 15 d8 3c be 56 90 3c
       -0.006020315 0.024655698 0.02637737 0.017619487
0000e0 1c 28 88 bc 14 17 25 3a 21 f8 1f 3d 0c e0 15 3d
       -0.016620688 0.00062976894 0.039054994 0.03659062
0000f0 c1 5b 0d 3a c6 26 a0 bc f8 9e c8 bc 34 24 25 bc
       0.00053923955 -0.019549739 -0.024489865 -0.010079432
000100 4a 5a f0 3c a8 f7 34 3c af c2 18 3c 2b 3b 10 bc
       0.029339928 0.011045374 0.00932376 -0.008803169
000110 86 e9 51 bc 75 f0 4b bd e8 c0 c5 ba dd 6d 41 bc
       -0.012812024 -0.049789865 -0.0015087398 -0.011805979
000120 f9 46 11 bd 11 a3 4f bd fe 04 ae bc c9 88 4b 3c
       -0.035468075 -0.05069262 -0.021242615 0.012422749
000130 68 fc 1f 3d 39 d2 2b 3b a2 89 4b bc 7f b7 ac bb
       0.039059073 0.0026217832 -0.012422951 -0.005270898
000140 b0 20 01 bd 0d 50 0a bd 49 d9 37 3c b6 ae 9b bc
       -0.031525314 -0.03376775 0.011221238 -0.019004207
000150 2a f1 98 bc 1b 73 95 bc d2 07 bf 3c 99 6f 66 3c
       -0.018669683 -0.018243363 0.023319159 0.014064693
000160 ae 1e f8 3b 60 7f ad bc 4a 1c a7 3c 55 25 60 3c
       0.0075720167 -0.021178901 0.020399231 0.013680776
000170 6e e1 8a 3b af ab 1a ba 11 9b 88 bc cc 06 3a bd
       0.004238299 -0.00059002166 -0.016675504 -0.04541664
000180 d7 10 b3 3c 85 bc 01 3b 60 e6 98 bc 96 e0 a6 bc
       0.021858616 0.0019796204 -0.018664539 -0.020370763
000190 50 03 26 bb 91 e8 0a bd 74 38 db bc 04 c4 22 bd
       -0.0025331564 -0.0339132 -0.026760317 -0.039737716
0001a0 2c 87 02 bb 2e 9b 10 3d ae 08 5d bd e4 7c d8 3b
       -0.0019916994 0.03530424 -0.053963356 0.006606685
0001b0 e5 c8 71 bc 43 0c 96 bb 1c ea 9c bb 80 7a 6f 3c
       -0.01475737 -0.0045790984 -0.00478865 0.014616609
0001c0 4d 63 bc 3c 2f 22 a8 3c 93 3e 03 bd ad fe df 3c
       0.022996569 0.020524113 -0.032042097 0.027343119
0001d0 12 45 d6 bc 93 80 bc bc b5 b0 ca 3c 91 37 92 3c
       -0.026155982 -0.023010528 0.024742464 0.017848762
0001e0 a3 bf e0 3c b5 77 fc bc 86 68 b9 3c dc a6 c4 3b
       0.02743513 -0.0308188 0.022632848 0.0060013365
0001f0 19 76 0b bd 5d 3a 5b bb 28 05 91 3c f5 7b c7 bc
       -0.034048174 -0.0033451535 0.017702654 -0.0243511

fc2.weight f4 [10, 128]
000000 8b 32 2e be d0 4f 51 3d ec 6f e7 bc 4f 1a 15 bd
       -0.17011468 0.051101506 -0.02825161 -0.036402043
000010 40 68 49 bd 2d 18 c8 3d 4a 9c 5b 3d b5 9c b4 bc
       -0.049171686 0.09770236 0.053615846 -0.02204738
000020 f1 67 50 3c c1 e2 8f 3d c4 31 a6 3d 0e f7 ed bc
       0.012720094 0.07025672 0.08114961 -0.029048469
000030 c9 2e 73 3d c9 f8 55 bd 59 7b 6e be 59 d8 ff bd
       0.05937079 -0.052239213 -0.23289241 -0.12492437
000040 7f f5 4f bd b2 76 91 bd 93 94 b6 be 3d b2 87 be
       -0.050771233 -0.071027175 -0.35660228 -0.26503173
000050 2a 05 78 bc 5a 0a a1 3d 73 74 2f 3e 9e 54 9c bd
       -0.01513795 0.078633025 0.17134266 -0.07633327
000060 ac 34 8d 3d 77 ae 7c bc b5 ca 9a 3d 07 f5 0f be
       0.06894812 -0.015422455 0.075581945 -0.14058314
000070 1a 03 85 3d 82 d8 73 bb f1 62 78 be e1 f7 8b bd
       0.06494732 -0.0037207906 -0.24256493 -0.068343885
000080 b1 fc 32 be 00 40 a8 bc c7 09 87 3d 9a 6b 88 bd
       -0.17479207 -0.02053833 0.06593662 -0.06661148
000090 9f d9 be 3d 76 c9 29 3d 6d 1f 0a 3e f4 35 fd be
       0.09318852 0.041451894 0.1348855 -0.49455225
0000a0 a0 62 29 bd 48 4c d2 bc 7e c0 08 3e 68 7b 09 3e
       -0.04135382 -0.02567114 0.1335468 0.13425982
0000b0 46 a4 d8 3d 5f 4c bd 3d f3 5d 87 3d 84 02 5e 38
       0.10578208 0.09243082 0.06609716 5.2931267e-05
0000c0 24 28 59 bd e4 6a 51 bd 69 dc bc bc 87 be 4a bc
       -0.053016797 -0.05112733 -0.023054319 -0.012374527
0000d0 ff 93 84 3d 3f 5c a9 bd f8 84 bd 3d 2f 13 1c 3b
       0.064735405 -0.08269548 0.092538774 0.0023815145
0000e0 61 d6 0e bd d3 ce c4 3d 04 81 71 3d c7 cd 42 bd
       -0.034872416 0.09609761 0.05896093 -0.047559526
0000f0 2a 41 e8 3d c8 89 d6 3d 95 d7 62 be 09 1d 27 3e
       0.11340554 0.104754984 -0.2215255 0.1631967
000100 49 64 0b be 99 d8 2e 3d 3e 3d 4e bb 94 1e 00 3b
       -0.13612475 0.042687032 -0.0031469609 0.0019549476
000110 99 05 59 3d 7c e6 ac 3d 5d 2f 62 3c 12 36 3d 3c
       0.052983854 0.08442399 0.013805238 0.011548536
000120 49 94 0b bd be 3e 88 be 40 4a 2a bd 14 6f a3 3d
       -0.034076963 -0.26610368 -0.041574717 0.07980171
000130 c4 4a 9f bc ac 31 b9 bd ba 9c a0 bb 2d 12 6f be
       -0.01944483 -0.09042677 -0.0049014958 -0.23346777
000140 9f 19 c9 3d ba 23 d6 3d fb 61 10 3e 50 1f eb 3d
       0.0981934 0.10456033 0.14099877 0.11480582
000150 4f 0b 4c be 23 19 1c 3e 57 f0 26 bd b4 2d 96 3d
       -0.19926189 0.15243964 -0.04075655 0.07332936
000160 7b d0 c5 3d 61 a4 6a be 62 41 2a bd 32 c1 5b be
       0.09658905 -0.22914268 -0.04156626 -0.21460417
000170 a0 ed 8d bc ba df af bc c9 c4 22 3d c5 49 2f 3e
       -0.017325222 -0.021468986 0.03973845 0.17117985
000180 80 a5 55 bd 7e 03 01 3d a8 e7 46 be 1f 1e a3 3d
       -0.052159786 0.03149747 -0.19424307 0.079647295
000190 a4 08 93 be 25 45 f6 bc 4d 6e 01 bd e8 df fe 3c
       -0.2871753 -0.030062268 -0.03159933 0.031112626
0001a0 84 43 88 3c ab cd 39 be 1b d6 c0 3d ae 56 8e 3d
       0.016633756 -0.18144862 0.094158374 0.069501266
0001b0 53 7a 76 3d b7 cb a4 3d f5 e2 05 be 13 a0 d5 bb
       0.06017525 0.08046668 -0.13074858 -0.0065193265
0001c0 3c ae 00 bf ef 04 49 3d 09 d4 92 be 01 f5 15 bd
       -0.5026586 0.04907697 -0.28677395 -0.036610607
0001d0 b2 ab 57 3e e0 80 1d be 1b 0c ca bc e9 28 a0 bc
       0.2106159 -0.15381193 -0.024663975 -0.019550757
0001e0 1d c2 68 bd bf 7f 37 3e 92 ff 19 be 72 2c c5 bd
       -0.056825746 0.17919825 -0.15038899 -0.09627618
0001f0 8d de b5 bd f7 b6 0d bd c8 81 98 be 23 48 34 3d
       -0.08880339 -0.034598317 -0.29786515 0.044014107
000200 f7 29 7d 3d 02 4c 74 be 66 16 6a 3c fe 8e 84 bc
       0.0618076 -0.2385712 0.014287567 -0.016181465
000210 59 8d 85 3c b3 9c 5a be 13 4b 9b 3b d3 c7 93 3d
       0.016302751 -0.21348839 0.004739174 0.07215848
000220 37 6d a2 3d 08 96 9a bd dd 4f 34 3c 3d a9 27 3c
       0.07930987 -0.075481474 0.011005369 0.010233221
000230 94 7a 55 bd 54 05 73 bd 3f 61 17 3e f6 ee a4 bd
       -0.052118853 -0.059331253 0.1478319 -0.08053391
000240 a8 84 bd 3c 27 30 9a 3b d9 33 ae be 9e 18 07 3e
       0.023134544 0.0047054472 -0.34023932 0.13192984
000250 ac 8e 9d 3d f1 c6 84 bc 52 63 02 be a8 bf 9e 3c
       0.07693228 -0.016208144 -0.127332 0.019378498
000260 0b 27 67 3d 99 8c 4c 3d 39 46 32 3d 67 a8 46 3e
       0.05643372 0.049938772 0.043524 0.19400178
000270 1c 28 0e 3d a8 1b 77 bd 4a 91 17 3e e8 26 c3 39
       0.03470622 -0.06032911 0.14801517 0.00037222286
000280 ec 2c 0a be a0 18 cc 3d aa 48 2f 3d 44 4c 8a 3d
       -0.13493699 0.09965634 0.042793907 0.06752828
000290 dc b3 a9 bd a6 73 79 3d 24 60 29 bd 48 33 3c 3c
       -0.082862586 0.060901307 -0.041351452 0.011486836
0002a0 7c a9 1c 3e 7f ed d7 3c 58 d5 0f bb 9f 7c 6f be
       0.15299028 0.026358364 -0.002194723 -0.23387383
0002b0 c6 b9 0d be 06 e8 d1 3c c6 7c c3 bd fd f4 a1 bc
       -0.13840398 0.025623333 -0.09545283 -0.01977014
0002c0 c8 7b 65 bc 22 05 71 3d 58 43 c9 3c c6 7e c7 b7
       -0.0140065625 0.058842786 0.024568245 -2.3781682e-05
0002d0 4b f9 0d 3e 63 41 63 3b 1b 7e 37 be 45 1b 65 3d
       0.13864629 0.0034676425 -0.17919199 0.05593421
0002e0 2f b9 07 3e f9 01 93 3e e7 9d a2 bc 94 4d 0d 3d
       0.13254236 0.28712443 -0.019850684 0.034497812
0002f0 d7 8c 67 be 91 db 64 3e 5e 6a e1 3d e4 78 66 be
       -0.2261232 0.22349383 0.11006616 -0.22507054
000300 65 47 40 3d 8e 74 a2 3d 06 74 a0 bd 8e 67 8a 3d
       0.046943087 0.07932387 -0.0783463 0.06758033
000310 fa 6e 8d bd 83 70 8e 3b a2 3b 6d 3d 48 a8 8f bd
       -0.06905933 0.0043469085 0.0579182 -0.07014519
000320 05 2b be bd d4 9c 7e 3d 0d 44 f7 bb 6f 36 92 bd
       -0.09285549 0.06216128 -0.007545954 -0.07139289
000330 df 05 b7 3d 31 9d 95 bd c3 b3 6a 3d fd 59 84 3d
       0.08936667 -0.073053725 0.05730034 0.064624764
000340 2b 53 e3 be 39 7b 7f bd b1 0f 80 3e e3 4b 9e be
       -0.4439939 -0.062373374 0.25011972 -0.30917272
000350 bb 99 4a bd 72 11 97 be c7 ba 37 bd bc 29 5e 3c
       -0.049463015 -0.29505497 -0.04485586 0.013559755
000360 21 4a 3b be 49 d1 5b be ee db b6 bc 80 92 b1 3d
       -0.18289997 -0.21466555 -0.022321668 0.08670521
000370 3b 39 ca bc a5 39 9a 3d cf e5 8b bd fa 18 bc bd
       -0.024685493 0.07530526 -0.06830942 -0.091844514
000380 9b 0c b0 bd cb 2e 9d bc c4 2f bf 3d 40 2e 50 bc
       -0.08596154 -0.019187352 0.093352824 -0.012706339
000390 aa 6b 0e 3d 9c 40 dc bc 40 9c a5 bd 65 d6 99 3d
       0.034770645 -0.026886277 -0.08086443 0.07511596
0003a0 7c 64 1f bc 50 7b 78 bd b9 d6 d5 3d ed 3f 9b 3c
       -0.009728547 -0.060664475 0.10441346 0.01895138
0003b0 26 3e a7 bc 05 ef 04 be e1 df de 3c 38 2e 61 3d
       -0.020415377 -0.12981804 0.027206363 0.05497572
0003c0 26 62 4f 3d e1 63 5d bd bb 98 1f 3d fd 17 58 3d
       0.05063071 -0.05405033 0.038964015 0.052757252
0003d0 67 b0 3c 3e cb 8f e9 bc 78 09 6a 3e 53 b6 53 be
       0.18426667 -0.028510949 0.22855175 -0.2067502
0003e0 51 ed 69 3d 86 b3 70 bd 60 b6 52 bd 51 50 39 3d
       0.05711109 -0.058764957 -0.051443458 0.04524261
0003f0 26 b7 cf bc 37 bf 9a bd fd e6 44 3d 38 40 9d 3d
       -0.025355887 -0.075560026 0.04807185 0.076782644

fc2.bias f4 [10]
000000 92 82 c6 bd 19 79 2e 3d e0 86 61 3d 4c d9 3a bd
       -0.09692873 0.042595956 0.055060267 -0.045617387
000010 0d b6 f1 bb 1a c8 99 3c ec 7d b6 3d 8f 62 4b ba
       -0.0073764385 0.018772174 0.089107364 -0.0007758522
000020 c3 b8 09 3e 3e f8 8c bb
       0.13449387 -0.0043020537
